…
/home/ICTDOMAIN/d14122793/code/ucf101_full_classes/models.py:232: UserWarning: Update your `Conv3D` call to the Keras 2 API: `Conv3D(512, (3, 3, 3), activation="relu", name="conv5b", strides=(1, 1, 1), padding="same")`
  subsample=(1, 1, 1)))
/home/ICTDOMAIN/d14122793/code/ucf101_full_classes/models.py:235: UserWarning: Update your `MaxPooling3D` call to the Keras 2 API: `MaxPooling3D(strides=(2, 2, 2), name="pool5", pool_size=(2, 2, 2), padding="valid")`
  border_mode='valid', name='pool5'))
Loading C3D
_________________________________________________________________
Layer (type)                 Output Shape              Param #   
=================================================================
conv1 (Conv3D)               (None, 40, 80, 80, 64)    5248      
_________________________________________________________________
pool1 (MaxPooling3D)         (None, 40, 40, 40, 64)    0         
_________________________________________________________________
conv2 (Conv3D)               (None, 40, 40, 40, 128)   221312    
_________________________________________________________________
pool2 (MaxPooling3D)         (None, 20, 20, 20, 128)   0         
_________________________________________________________________
conv3a (Conv3D)              (None, 20, 20, 20, 256)   884992    
_________________________________________________________________
conv3b (Conv3D)              (None, 20, 20, 20, 256)   1769728   
_________________________________________________________________
pool3 (MaxPooling3D)         (None, 10, 10, 10, 256)   0         
_________________________________________________________________
conv4a (Conv3D)              (None, 10, 10, 10, 512)   3539456   
_________________________________________________________________
conv4b (Conv3D)              (None, 10, 10, 10, 512)   7078400   
_________________________________________________________________
pool4 (MaxPooling3D)         (None, 5, 5, 5, 512)      0         
_________________________________________________________________
conv5a (Conv3D)              (None, 5, 5, 5, 512)      7078400   
_________________________________________________________________
conv5b (Conv3D)              (None, 5, 5, 5, 512)      7078400   
_________________________________________________________________
zero_padding3d_1 (ZeroPaddin (None, 5, 7, 7, 512)      0         
_________________________________________________________________
pool5 (MaxPooling3D)         (None, 2, 3, 3, 512)      0         
_________________________________________________________________
flatten_1 (Flatten)          (None, 9216)              0         
_________________________________________________________________
fc6 (Dense)                  (None, 4096)              37752832  
_________________________________________________________________
dropout_1 (Dropout)          (None, 4096)              0         
_________________________________________________________________
fc7 (Dense)                  (None, 4096)              16781312  
_________________________________________________________________
dropout_2 (Dropout)          (None, 4096)              0         
_________________________________________________________________
dense_1 (Dense)              (None, 101)               413797    
=================================================================
Total params: 82,603,877
Trainable params: 82,603,877
Non-trainable params: 0
_________________________________________________________________
None
Epoch 1/1000
Creating train generator with 8596 samples.
Creating test generator with 3418 samples.
Traceback (most recent call last):
  File "train.py", line 119, in <module>
    main()
…
2018-11-11 22:03:51.391839: I tensorflow/core/common_runtime/gpu/gpu_device.cc:1001] 0:   N 
2018-11-11 22:03:51.392122: I tensorflow/core/common_runtime/gpu/gpu_device.cc:1115] Created TensorFlow device (/job:localhost/replica:0/task:0/device:GPU:0 with 10757 MB memory) -> physical GPU (device: 0, name: Tesla K80, pci bus id: 0000:3d:00.0, compute capability: 3.7)
Loading Conv3D
_________________________________________________________________
Layer (type)                 Output Shape              Param #   
=================================================================
conv3d_1 (Conv3D)            (None, 38, 78, 78, 32)    2624      
_________________________________________________________________
max_pooling3d_1 (MaxPooling3 (None, 38, 39, 39, 32)    0         
_________________________________________________________________
conv3d_2 (Conv3D)            (None, 36, 37, 37, 64)    55360     
_________________________________________________________________
max_pooling3d_2 (MaxPooling3 (None, 36, 18, 18, 64)    0         
_________________________________________________________________
conv3d_3 (Conv3D)            (None, 34, 16, 16, 128)   221312    
_________________________________________________________________
conv3d_4 (Conv3D)            (None, 32, 14, 14, 128)   442496    
_________________________________________________________________
max_pooling3d_3 (MaxPooling3 (None, 32, 7, 7, 128)     0         
_________________________________________________________________
conv3d_5 (Conv3D)            (None, 31, 6, 6, 256)     262400    
_________________________________________________________________
conv3d_6 (Conv3D)            (None, 30, 5, 5, 256)     524544    
_________________________________________________________________
max_pooling3d_4 (MaxPooling3 (None, 30, 2, 2, 256)     0         
_________________________________________________________________
flatten_1 (Flatten)          (None, 30720)             0         
_________________________________________________________________
dense_1 (Dense)              (None, 1024)              31458304  
_________________________________________________________________
dropout_1 (Dropout)          (None, 1024)              0         
_________________________________________________________________
dense_2 (Dense)              (None, 1024)              1049600   
_________________________________________________________________
dropout_2 (Dropout)          (None, 1024)              0         
_________________________________________________________________
dense_3 (Dense)              (None, 101)               103525    
=================================================================
Total params: 34,120,165
Trainable params: 34,120,165
Non-trainable params: 0
_________________________________________________________________
None
Epoch 1/1000
Creating test generator with 3418 samples.
Creating train generator with 8596 samples.

  1/262 [..............................] - ETA: 1:15:50 - loss: 4.6153 - acc: 0.0000e+00 - top_k_categorical_accuracy: 0.0312
…
