…
2018-11-10 16:02:18.562596: I tensorflow/stream_executor/cuda/cuda_diagnostics.cc:194] libcuda reported version is: 396.26.0
2018-11-10 16:02:18.562646: I tensorflow/stream_executor/cuda/cuda_diagnostics.cc:198] kernel reported version is: 396.26.0
2018-11-10 16:02:18.562658: I tensorflow/stream_executor/cuda/cuda_diagnostics.cc:305] kernel version seems to match DSO: 396.26.0
Loading CNN-LSTM model.
_________________________________________________________________
Layer (type)                 Output Shape              Param #   
=================================================================
time_distributed_1 (TimeDist (None, 40, 40, 40, 32)    4736      
_________________________________________________________________
time_distributed_2 (TimeDist (None, 40, 38, 38, 32)    9248      
_________________________________________________________________
time_distributed_3 (TimeDist (None, 40, 19, 19, 32)    0         
_________________________________________________________________
time_distributed_4 (TimeDist (None, 40, 19, 19, 64)    18496     
_________________________________________________________________
time_distributed_5 (TimeDist (None, 40, 19, 19, 64)    36928     
_________________________________________________________________
time_distributed_6 (TimeDist (None, 40, 9, 9, 64)      0         
_________________________________________________________________
time_distributed_7 (TimeDist (None, 40, 9, 9, 128)     73856     
_________________________________________________________________
time_distributed_8 (TimeDist (None, 40, 9, 9, 128)     147584    
_________________________________________________________________
time_distributed_9 (TimeDist (None, 40, 4, 4, 128)     0         
_________________________________________________________________
time_distributed_10 (TimeDis (None, 40, 4, 4, 256)     295168    
_________________________________________________________________
time_distributed_11 (TimeDis (None, 40, 4, 4, 256)     590080    
_________________________________________________________________
time_distributed_12 (TimeDis (None, 40, 2, 2, 256)     0         
_________________________________________________________________
time_distributed_13 (TimeDis (None, 40, 2, 2, 512)     1180160   
_________________________________________________________________
time_distributed_14 (TimeDis (None, 40, 2, 2, 512)     2359808   
_________________________________________________________________
time_distributed_15 (TimeDis (None, 40, 1, 1, 512)     0         
_________________________________________________________________
time_distributed_16 (TimeDis (None, 40, 512)           0         
_________________________________________________________________
dropout_1 (Dropout)          (None, 40, 512)           0         
_________________________________________________________________
lstm_1 (LSTM)                (None, 256)               787456    
_________________________________________________________________
dense_1 (Dense)              (None, 101)               25957     
=================================================================
Total params: 5,529,477
Trainable params: 5,529,477
Non-trainable params: 0
_________________________________________________________________
None
Epoch 1/1000
Creating train generator with 8596 samples.
Creating test generator with 3418 samples.

  1/262 [..............................] - ETA: 1:01:01 - loss: 4.6151 - acc: 0.0000e+00 - top_k_categorical_accuracy: 0.0000e+00
…
