…
2018-11-11 22:02:37.751128: I tensorflow/core/common_runtime/gpu/gpu_device.cc:1115] Created TensorFlow device (/job:localhost/replica:0/task:0/device:GPU:0 with 10407 MB memory) -> physical GPU (device: 0, name: GeForce GTX 1080 Ti, pci bus id: 0000:04:00.0, compute capability: 6.1)
Using TensorFlow backend.
Loading model /data/d14122793/ucf101_full/checkpoints/lrcn-images.033-3.831.hdf5
_________________________________________________________________
Layer (type)                 Output Shape              Param #   
=================================================================
time_distributed_1 (TimeDist (None, 40, 40, 40, 32)    4736      
_________________________________________________________________
time_distributed_2 (TimeDist (None, 40, 38, 38, 32)    9248      
_________________________________________________________________
time_distributed_3 (TimeDist (None, 40, 19, 19, 32)    0         
_________________________________________________________________
time_distributed_4 (TimeDist (None, 40, 19, 19, 64)    18496     
_________________________________________________________________
time_distributed_5 (TimeDist (None, 40, 19, 19, 64)    36928     
_________________________________________________________________
time_distributed_6 (TimeDist (None, 40, 9, 9, 64)      0         
_________________________________________________________________
time_distributed_7 (TimeDist (None, 40, 9, 9, 128)     73856     
_________________________________________________________________
time_distributed_8 (TimeDist (None, 40, 9, 9, 128)     147584    
_________________________________________________________________
time_distributed_9 (TimeDist (None, 40, 4, 4, 128)     0         
_________________________________________________________________
time_distributed_10 (TimeDis (None, 40, 4, 4, 256)     295168    
_________________________________________________________________
time_distributed_11 (TimeDis (None, 40, 4, 4, 256)     590080    
_________________________________________________________________
time_distributed_12 (TimeDis (None, 40, 2, 2, 256)     0         
_________________________________________________________________
time_distributed_13 (TimeDis (None, 40, 2, 2, 512)     1180160   
_________________________________________________________________
time_distributed_14 (TimeDis (None, 40, 2, 2, 512)     2359808   
_________________________________________________________________
time_distributed_15 (TimeDis (None, 40, 1, 1, 512)     0         
_________________________________________________________________
time_distributed_16 (TimeDis (None, 40, 512)           0         
_________________________________________________________________
dropout_1 (Dropout)          (None, 40, 512)           0         
_________________________________________________________________
lstm_1 (LSTM)                (None, 256)               787456    
_________________________________________________________________
dense_1 (Dense)              (None, 101)               25957     
=================================================================
Total params: 5,529,477
Trainable params: 5,529,477
Non-trainable params: 0
_________________________________________________________________
None
Creating test generator with 3418 samples.
[3.8854189616329267, 0.11586084905660378, 0.32252358490566035]
['loss', 'acc', 'top_k_categorical_accuracy']
2018-11-11 22:11:35.922762: I tensorflow/core/platform/cpu_feature_guard.cc:141] Your CPU supports instructions that this TensorFlow binary was not compiled to use: AVX2 FMA
…
2018-11-11 22:11:36.993646: I tensorflow/core/common_runtime/gpu/gpu_device.cc:1115] Created TensorFlow device (/job:localhost/replica:0/task:0/device:GPU:0 with 10407 MB memory) -> physical GPU (device: 0, name: GeForce GTX 1080 Ti, pci bus id: 0000:04:00.0, compute capability: 6.1)
Using TensorFlow backend.
Loading model /data/d14122793/ucf101_full/checkpoints/mlp-features.006-1.030.hdf5
_________________________________________________________________
Layer (type)                 Output Shape              Param #   
=================================================================
flatten_1 (Flatten)          (None, 81920)             0         
_________________________________________________________________
dense_1 (Dense)              (None, 512)               41943552  
_________________________________________________________________
dropout_1 (Dropout)          (None, 512)               0         
_________________________________________________________________
dense_2 (Dense)              (None, 512)               262656    
_________________________________________________________________
dropout_2 (Dropout)          (None, 512)               0         
_________________________________________________________________
dense_3 (Dense)              (None, 101)               51813     
=================================================================
Total params: 42,258,021
Trainable params: 42,258,021
Non-trainable params: 0
_________________________________________________________________
None
Creating test generator with 3418 samples.
[1.1775977178564612, 0.7081367924528302, 0.890625]
['loss', 'acc', 'top_k_categorical_accuracy']
